s1_getting_started/exercise_files/final_exercise/checkpoint.pth (torch, 973263 bytes, 8 tensors)

fc1.weight f4 [256, 784]
00000000: 8e34 c6bc aa8f a03c 7c82 52bc aacd e53c
00000010: 520d 07bd 5158 d5bc 0a11 8dbb 93e2 92bb
00000020: 2a7c 69bc e504 4ebc fc8e 26bc 44a5 c4bc
00000030: 2962 f2bb 132c 643b e595 9abb b7ee 92ba
00000040: 1f4f acbb 0e3f 9fbc 0c16 c2bc 0861 623c
00000050: 9398 033b f5d5 02bd 5fe8 0a3d 5ed6 943c
00000060: 1455 05bd b285 0d3d a105 c53c 0e5e 68bc
00000070: 8f8b 08bd a542 f3bb 31b0 dbbc 6ed9 fdbb
00000080: f7c2 cb3b 7765 c8bc 2e4c 39bc 618d 85be
00000090: a563 81be 3cdc c0bd 7d19 973a c0fd d4bc
000000a0: 2f0f e8bd ce54 1abe 8d8c 32be 61a2 afbd
000000b0: c346 eebe 8c41 fdbe 0ac5 e5be 093c afbd
000000c0: 3c49 00bd c06e 653b 8718 a3bd 9b72 34be
000000d0: 02be c7bd 2552 a0ba 13bf f73b 933a deba
000000e0: be53 883c 704f 9abc 7c05 b4bc 80f5 06bc
000000f0: 5ce0 24be 9923 ecbd f425 01be c79a 9fbe
00000100: 3c20 9fbe 97d3 b5be 1d1e d4be 7d30 edbe
00000110: e93f f1be bcb7 ecbe 6f91 4abe 574f c8be
00000120: 4e8e 2e3e 4d58 5b3d 491b 87be 457f a6be
00000130: 9678 2dbd 3fe5 b4be 5515 6dbe 00f1 4fbe
00000140: b188 bdbd c560 6d3c 4a18 7e3b 5515 a33c
00000150: d385 0cbd 60d3 9a3c fe07 9f3c bcdd 4ebc
00000160: 86c5 463e 34d9 16be 3cc7 28be bef3 0bbe
00000170: 19e1 963d 8891 01be 3e42 dfbe 58e4 0dbf
00000180: 3373 00bf 101d ecbe 8dfd 2cbf 318f b1be
00000190: d843 e13b 769d 863e a099 733d 21dc 2cbe
000001a0: c30e 083f 83f5 c23e d48f bb3d 2e92 6cb9
000001b0: 70de 70be 1fd2 363c e68b 3bbd c067 9a3c
000001c0: 0ce3 f13c 2cf0 8fbc 1ac5 ad3c ad0d 293d
000001d0: 5956 e9ba 59c8 333e e618 7c3e 0f55 cf3d
000001e0: 1829 9e3d de9e 8fbe 8d5d 32be 3aff 8bbe
000001f0: 5e2c 65be 10f6 6fbf 7550 3dbf 0f63 e4be
00000200: b179 58be 7959 84bd 0f03 2b3e 6085 163e
00000210: e3bc 123e 5358 45be 6c9a 07be cd3d 8e3d
00000220: ae43 38be f93e 19be ac39 86bd e31f 933c
00000230: 2e66 cabb 0c8b 9b3c 5699 cfbc 6f8c 38be
00000240: 5552 26be ff46 f73d fc35 403e e0af 333e
00000250: 00b3 583e 7184 0f3e fad9 6d3e c64a c03d
00000260: f7db 363e 03f2 0abf 2554 dabe 4e1d 21be
00000270: 2ae3 83be 462b 713d e8f5 983e d4fc d23d
00000280: 7416 e83d 9ce3 d13d 6f99 b43d cdbb 8c3d
00000290: 739f e4bd 6338 80be f5b7 dcbd 4af2 723b
000002a0: e0ff a53c 86a7 df3e aa41 f73e 7c33 9d3b
000002b0: 9db7 223e 2cbf bc3d 4d9d d43d f766 133e
000002c0: 5a51 483e 161c 3c3e 5947 c5bc 2d76 133d
000002d0: 9a15 a33d df1e dbbd 41e9 2cbe bd47 b5bd
000002e0: e8b2 143e 16fe 8d3c 7a4f 353d b924 933d
000002f0: f01b b9bd db7c 27be e36a 14be fa7a 0f3a
00000300: d4f3 bbbe b753 3ebe f492 6ebd 8f8c 46bd
00000310: 0ef1 93bc 3833 813e 954a a93e 417b 583c
00000320: 14ca 223e 05ad 043e 8034 48be 22eb ea3e
00000330: 508f dd3e 078b 603e de12 4a3e a808 cc3d
00000340: 001e ef3c d4f2 d13c e47d 44be bbf8 74be
00000350: 1cb5 863d fc6f 823e 9ed4 303d 9819 833d
00000360: 6ed4 1fbc f48d 8f3d 0705 6c3e f586 633c
00000370: 112e 83bd ed5c 80be 122a 9fbe 0b32 52be
00000380: dc8a e3bc 78d8 d1bd 0bcc 8a3e 41ec 143f
00000390: 416d f3be a2ce a8be 1478 c3be 739e 2ebe
000003a0: d097 243e 11e5 9f3e cbdd a23d 4114 543e
000003b0: ffae 33bd 065e babd 4395 3fbe 76af 6fbd
000003c0: 9358 6f3e ae10 c93c eb97 893d 5463 5f3d
000003d0: 403d aa3c 1725 24bd 5217 cc3c 8a28 f4bd
000003e0: eb7b c8bd ff0e 52ba 07d8 2b3e 6f43 97bd
000003f0: d113 36bd ae12 0e3d 075d 183e 45bb d23d
-0.024194982 0.019599754 -0.012848493 0.02805217 -0.032971688 -0.02604309 -0.0043050097 -0.004482576
-0.014250794 -0.012574409 -0.010165926 -0.024004586 -0.0073969555 0.003481631 -0.004717576 -0.0011210059
-0.0052584554 -0.019439247 -0.023692153 0.013817079 0.0020079955 -0.031942327 0.033913013 0.018168624
-0.03255184 0.03455133 0.024050536 -0.014182581 -0.03333622 -0.007423716 -0.026817413 -0.007746867
0.00621831 -0.024462445 -0.011309667 -0.26084426 -0.25271335 -0.094170064 0.0011527982 -0.025999904
-0.11331021 -0.15071413 -0.17436428 -0.08575893 -0.46538362 -0.4946407 -0.4487689 -0.08556373
-0.03131984 0.003500864 -0.079636626 -0.17621844 -0.09753038 -0.0012231512 0.0075606196 -0.0016954712
0.016641494 -0.018836707 -0.021975271 -0.008237243 -0.16101211 -0.11530227 -0.12612134 -0.31172773
-0.3107928 -0.35512993 -0.41429225 -0.46326056 -0.47119072 -0.46233928 -0.19782041 -0.39123031
0.17046472 0.053551007 -0.26388004 -0.32518974 -0.042351328 -0.3533115 -0.23152669 -0.20306778
-0.092545874 0.014488404 0.0038771802 0.019907633 -0.034307312 0.01889962 0.01941299 -0.012626108
0.19411287 -0.14731294 -0.16482252 -0.13667199 0.07367153 -0.12653172 -0.43605226 -0.5542655
-0.5017578 -0.46115923 -0.6757439 -0.3467956 0.0068745427 0.26292008 0.05947268 -0.16880848
0.53147525 0.38077936 0.091582924 -0.0002256117 -0.23522353 0.011158495 -0.045787714 0.0188483
0.02952721 -0.017570578 0.02121215 0.041272808 -0.0017802223 0.17556895 0.24618873 0.101236455
0.07722682 -0.28050894 -0.174185 -0.2734316 -0.22380206 -0.93734837 -0.7395089 -0.44606826
-0.21140172 -0.06462378 0.16700386 0.14699316 0.14329867 -0.19271974 -0.13242501 0.06945381
-0.17994568 -0.14965428 -0.06553969 0.01795954 -0.0061767315 0.018987201 -0.025341671 -0.18022321
-0.16242345 0.12074088 0.18770593 0.1754756 0.21162033 0.14015366 0.23227683 0.09389262
0.17857347 -0.5427553 -0.42642322 -0.15733835 -0.2575925 0.05887916 0.29875112 0.103021294
0.113324076 0.10248491 0.08818328 0.06871758 -0.11163225 -0.2504302 -0.107772745 0.0037070685
0.020263612 0.43682498 0.48292285 0.004797397 0.15890355 0.09216151 0.10381565 0.14394747
0.19562283 0.18370089 -0.024081873 0.036001373 0.079631045 -0.106992476 -0.16885854 -0.088515736
0.14521372 0.017333072 0.044265248 0.07184739 -0.09038532 -0.16356222 -0.14493899 0.0005473342
-0.36709464 -0.18586622 -0.058245614 -0.04847389 -0.01805928 0.2523439 0.33064714 0.01321298
0.15897399 0.12956627 -0.19551277 0.45882517 0.432734 0.21928035 0.1973376 0.099625885
0.02918911 0.025628485 -0.19188648 -0.23923008 0.065775126 0.25476062 0.043171518 0.06401366
-0.009755237 0.07009497 0.23048793 0.013887157 -0.06405271 -0.25070897 -0.31086785 -0.20526902
-0.027776174 -0.10246366 0.27108797 0.58172995 -0.47544292 -0.32970148 -0.3817755 -0.17052631
0.16073537 0.3122945 0.0795246 0.20710851 -0.04386806 -0.09099965 -0.18709283 -0.058516942
0.23373632 0.024544086 0.06718429 0.054538086 0.02078116 -0.040074434 0.024913464 -0.11921795
-0.097892605 -0.0008013099 0.16781627 -0.07385909 -0.044452492 0.034685783 0.14879237 0.10289625

fc1.bias f4 [256]
00000000: 803c 83bd 3c07 00bd 1281 073d fde9 d8bc
00000010: 794d 9b3d a707 64be c4dd acbe 179c 81bd
00000020: 8900 38bd 511b 19bb 3e32 0cbe ee82 74be
00000030: bbbc 12b9 003d 0d3e 6599 b93c 806d a7be
00000040: f7e3 40bd b573 96bd b02b dfbd b32f 88bd
00000050: ef34 22bc 11f5 efbd 0760 a2bd a157 f0bc
00000060: 7b97 633d f5af 48be e76a 67be 0be1 b7bb
00000070: 1406 193e f7e4 0fbf 459b fabd 6266 12bd
00000080: eb91 b93b 1877 8fbe 65c0 90bd 08b0 c0be
00000090: 0628 dd3d d467 f9bc f3ee 9cbe 74a4 f7bd
000000a0: 5611 f83c ee8a c9bc a6b1 dd3d 52ff 2dbd
000000b0: 78ef 5f3d 42b7 72be 7929 b7bd 0a17 783d
000000c0: a786 38bd 2e63 a6bd 0142 91bd 65c0 72bc
000000d0: 5eb2 583d 4aaa 81be 9125 29bd 0f0e 3cbe
000000e0: 5f0a 5ebd e8c3 7e3d c195 1dbd db24 7cbc
000000f0: 5954 b3bb 377c 703d e1f3 03be 1fbc 15be
00000100: ae9f 403c e915 2e3d d1bb f33d ff27 6f3d
00000110: e3b5 31bd 1467 663c bc0b 5dbe 5178 b8bd
00000120: 8319 3fbe 90da 32bb 077c 9fbd 2d11 20bd
00000130: 352a 9abd f1c7 d6bd 7d8d 093e 40bf af3c
00000140: 62f7 ccbc ea0b 72be 09b7 0fbe 73b0 ffbd
00000150: 6e42 8a3c 2c7f 02be 1f6e 0ebe 3ce8 77bd
00000160: 54f1 13bd 1b2a 9e3b 827e 73bc 409a 80bd
00000170: afce 06bc f988 e5bc 7334 80be 23d9 1cbe
00000180: 1c47 d4bd d2a1 933d 6c0f fabc 4a35 9e3d
00000190: 7f45 02be 63f4 a63c 20fb 82bd ba5d 9d3b
000001a0: 2192 9dbd e9ab 22be 041a e4bd df74 52bd
000001b0: a53c 9bbb a0fd 91bd 75f9 1d3d 09d6 8d3d
000001c0: 3a50 18bd 14df 38bd 8376 273c 57d3 0abe
000001d0: f2c1 60be b503 22bd 5202 cd3c eeaf 40bd
000001e0: 1a68 4bbe 1011 31be 6e93 82be 0553 a9bc
000001f0: f03b 40bc d62e 9fbe 0416 40bd 8247 29bc
00000200: fe89 7b3c 18bb 2ebe 666c 48be 8999 dbbd
00000210: 664e dabd e56f 2fbe d283 2e3d 2ce9 9e3d
00000220: e7c8 0f3e cf29 fabd 33cd 513d 8ed1 86be
00000230: 494e 253e 7d47 76be 043b 9bbe 8e6c 2abd
00000240: 3612 16bd f828 b5bc 7b51 f6bc c262 05bd
00000250: 16a8 43bd 75f2 1bbe 9236 03be 5fd6 20bd
00000260: 85ab 53bd fb80 55be 95aa 8e3c 2163 2ebe
00000270: f7df 2cbc 7c75 6ebe 982a a4be 10fa 1abd
00000280: fe70 c7bc 0ad8 69be 1786 dc3d 087a 073c
00000290: 303e 4f3d b9c0 e4bd 64e3 5fbe d5cc cfbd
000002a0: f0ad c4bc d59b 683c 5871 153d 606e 80be
000002b0: 789f d43d 5fec 543d 12b8 9dbd afb5 833d
000002c0: 71ae 99be 2283 603d be26 15bd 5909 c6bd
000002d0: 425c 4f3d 7c98 54be 795f 36bc 2df6 f7bc
000002e0: cc4f 0ebd 37f7 b4bd 8296 993c 50f4 a2be
000002f0: 3a62 c9bd f3c5 46be 410f abbd 01c1 d2bc
00000300: 8558 ea3c c558 a9bc a2ec 6fbe 9511 f23b
00000310: ba20 ff3c d2f3 b83d a9fa 0cbd 9cd5 2f3e
00000320: 8f08 32be 978b 79be 6ce1 fdbd 30ba fabd
00000330: 22b5 78bd a0cb 063e b191 dbbc c454 e8bc
00000340: 9f28 abbd baa5 223e f547 e13c bfbf d73d
00000350: fedb 61bd bd49 a4bc 61ed 49be 4271 4dbe
00000360: 4882 cabd 1ced 32be ac82 94bd 662d 90bd
00000370: 3d20 a6ba e18f 4dbd 4ce9 55bd a364 22bd
00000380: 69fa 3d3d 5358 04be 8c57 f7bc 5a18 0cbc
00000390: 6574 efbc fd99 593c 9653 24be a37c 0d3d
000003a0: 98f4 703c ef6b a6bd 5063 d3be a30d 41bd
000003b0: 7d10 acbd 925b 383d b956 65be 66f1 fb3d
000003c0: e7f9 09bc 774d 64be cb49 85bb 36b6 a5bc
000003d0: 656c 483d 84bf dbbd bca9 f93c 5145 5d3e
000003e0: a9ca 9a3c cba2 ed3d 92ed f0bd 056e 98be
000003f0: 2efc 2c3c 7f93 2cbd 8364 66be f565 ec3d
-0.06408024 -0.0312569 0.033082075 -0.026478762 0.07583136 -0.22268544 -0.33762944 -0.063286
-0.044922385 -0.002336223 -0.13691041 -0.2387807 -0.00013993953 0.13792801 0.022656152 -0.3270073
-0.047092404 -0.07346288 -0.108970046 -0.06649723 -0.009900316 -0.117166646 -0.07928472 -0.02933866
0.055564385 -0.19598372 -0.22599374 -0.005611544 0.14943725 -0.5620875 -0.122366466 -0.03574217
0.0056631467 -0.2802055 -0.07067946 -0.376343 0.107986495 -0.030445017 -0.30651054 -0.12091914
0.030281704 -0.02460238 0.108248994 -0.04247982 0.054671735 -0.2370272 -0.08943457 0.060568847
-0.04505029 -0.08124386 -0.07092667 -0.014816378 0.05290448 -0.25325233 -0.04129559 -0.18364738
-0.05420911 0.06219855 -0.038472895 -0.015389646 -0.0054727015 0.05871221 -0.12886001 -0.14622544
0.011756821 0.042501364 0.119010575 0.058387753 -0.04338635 0.014062662 -0.21586508 -0.090073235
-0.18662076 -0.0027290918 -0.07787328 -0.03907888 -0.075275816 -0.104873545 0.1343288 0.0214535
-0.025020305 -0.23637357 -0.14034666 -0.12484827 0.01687738 -0.12743825 -0.13909195 -0.06052421
-0.03611882 0.0048267967 -0.014861705 -0.06279421 -0.008227988 -0.028019415 -0.25040016 -0.15317206
-0.103651255 0.07208599 -0.030524932 0.07725008 -0.12721823 0.020380205 -0.063955545 0.004802433
-0.076938875 -0.15885891 -0.111377746 -0.05138099 -0.004737454 -0.07128453 0.03856798 0.069255896
-0.037185885 -0.04513462 0.0102211265 -0.13557182 -0.21948984 -0.039554317 0.02502552 -0.04704278
-0.1986393 -0.17291665 -0.25503105 -0.02066947 -0.01173304 -0.3109042 -0.046895996 -0.01033199
0.015352724 -0.17063558 -0.195726 -0.10722644 -0.106594846 -0.17132528 0.042606182 0.07759318
0.14041482 -0.122150056 0.051221084 -0.26331753 0.16143145 -0.24050708 -0.30318463 -0.041607432
-0.03663846 -0.022114262 -0.03006815 -0.032564886 -0.04776772 -0.15229209 -0.12813786 -0.03926694
-0.051677246 -0.20849983 0.017415324 -0.17030002 -0.010551444 -0.23287004 -0.32063746 -0.037836134
-0.024345871 -0.22836319 0.10767763 0.008268841 0.050596416 -0.111695714 -0.21864086 -0.101464905
-0.024008721 0.0141973095 0.036485046 -0.2508421 0.10381979 0.051983234 -0.07701124 0.06431138
-0.300159 0.054812558 -0.0364139 -0.09669752 0.050625093 -0.20761293 -0.011131161 -0.030268753
-0.03474407 -0.08836215 0.018748526 -0.3182702 -0.09833188 -0.19411449 -0.08352519 -0.025726797
0.028606663 -0.020672211 -0.23430112 0.00738735 0.031143535 0.0903088 -0.034418736 0.1717133
-0.17386077 -0.24369656 -0.123965114 -0.12242544 -0.060719617 0.13163614 -0.02680287 -0.028360732
-0.08357357 0.15883532 0.027500132 0.105346195 -0.05514144 -0.020054692 -0.19719459 -0.20062736
-0.098881304 -0.17473263 -0.07251486 -0.07039909 -0.0012674403 -0.05018604 -0.052224442 -0.039646756
0.046381388 -0.12924318 -0.030193113 -0.008550728 -0.029230306 0.013281343 -0.1604751 0.03454269
0.014706753 -0.081260554 -0.41286707 -0.047132146 -0.084015824 0.045009203 -0.22396363 0.123019025
-0.008421398 -0.22295175 -0.0040676347 -0.020228487 0.048931498 -0.10729888 0.030476443 0.21608473
0.018895464 0.11603316 -0.11764063 -0.29771438 0.010558171 -0.04213285 -0.2249928 0.11542884

fc2.weight f4 [128, 256]
00000000: 1674 513e d7ba e2be c4b9 0b3e f7a5 03bd
00000010: 6240 afbe 3931 e7bd 8bcd 70bd 6190 a7bd
00000020: 4433 533d 0d65 66bd 6d61 583e d25d 1c3c
00000030: f34e 37bd 04ba d33d 2d8c 0c3e 2e27 c93b
00000040: 61cc b7be 5487 d4be 7650 0c3d d0ce 1d3e
00000050: bea0 923d 287a be3d 8026 ca3e 78eb 4d3d
00000060: d5a9 d1be 6eab a83d 5b8f 08be 9dbc 3f3c
00000070: c31e 793e 277d 35bd b7f7 43be 48c9 a7be
00000080: e7ff 34bd 024a 07bb 6b1e d2bd 5a8d 173d
00000090: b41b 96be 422d d03c ae66 463d 174d 29bc
000000a0: a01d 463c 3a55 92bc 50f8 82be 235e 043e
000000b0: 8077 d5be 1367 bcbd 1cae f6bc e8e6 c33d
000000c0: 9505 19bc 6d2c fbbe 831a 213e 1c29 8dbc
000000d0: 3d03 3d3d 3268 e93d 9872 443e c901 eb3c
000000e0: 9fb5 1c3e e6dc efbe 698d 4d3d de19 b9bd
000000f0: 2838 d13d 92ca 9dbe 61e5 aebd f153 fcbd
00000100: b5f2 60bd 0c2a 92bd 7927 c1bd b6a3 e63e
00000110: 0cc2 f5bc c685 3c3d 60b2 4abd d07c 963c
00000120: 88af 103e cffa 293e 087a 8bbe 1eb3 0abf
00000130: 51d1 25bd 284d c9be cf0a e43d d383 66bd
00000140: 99fb c7be eada 3e3e a038 92bd b67b a0be
00000150: 7773 7ebd 7dbf 723e 7d92 a4be b5f4 8f3e
00000160: d750 553e dc9b 9a3e cc11 04bf 8441 8dbe
00000170: 0768 8a3e f57d 9d3e 1e89 ac3d 8da4 ad3d
00000180: e075 833d 55c3 cfbe 402a 48be 4258 cc3c
00000190: d6ce 8bbe 3430 84be a50d 0dbd 0671 e3bd
000001a0: 3167 79bd 19cc 663e e729 25bd 4799 babe
000001b0: 2aef 8dbd 1e5b f0bd c6e9 8d3e 38d7 29be
000001c0: 3905 2e3e d277 893e 6151 97be 7a6d 96bd
000001d0: 15c4 12be 2cfa de3d b09c 44bd 1712 3c3d
000001e0: 6938 6bbb 3a1d 433d b726 eb3e 0f01 233e
000001f0: b14c d9bc 02ee e2bc e109 ed3e c42c 973c
00000200: 581f 3f3c aec4 f33d 68f4 2ebe 001c b8be
00000210: 9762 503d 9781 623c b781 003e 323d 07be
00000220: fdf8 cc3e f6fb 41be dc7a 81bb c164 01be
00000230: e6c6 e73d d025 ec3c b4a4 cdbd bd20 6f3d
00000240: 7e76 9c3c fff7 85bd f201 8b3e b7c0 af3d
00000250: 03e0 68bd b7dd 9fbe 1f4c 07bf bb93 2f3e
00000260: 81f2 da3c 73b2 d53d 8c87 6a3d cb19 d93d
00000270: f63b 643e 284f 39be 26a6 77bd 2205 4e3c
00000280: 7a00 f33c e4cf 91be 043b a5be 1c01 28be
00000290: eb2b aa3d 478e cc3e 334d 2c3d 944f 2dbf
000002a0: 697f 383d 7e61 8abe 0cd6 5ebe ac04 c7bd
000002b0: 3f3c 19bd 9e25 423e 3118 3d3e a12d d8be
000002c0: e342 7bbe 9d8a 7fbd 6603 69bd fb3a 00bc
000002d0: 8d0a f5be 6efe 5abd 8310 173e 7b88 8fbe
000002e0: 8e0e 663d 7086 6d3e f3c3 f3bc b7cd 2fbe
000002f0: 356b 27be 1d2a 10bf 6a13 9b3d 9bba a5be
00000300: aced c23a ba7d 7b3d eaf5 b4be 2bb0 b1be
00000310: 2985 7dbc cdd2 783e f449 54be c7a7 723e
00000320: de8d f2be 95e8 0abd 40dc cebe c807 cd3d
00000330: 6ec5 28bd bcbc 413d 1121 50be a8d3 33bd
00000340: 64a4 babd ac20 cbbe d841 10bf 61bf acbd
00000350: 65dd b3bc 42f2 983e 8a23 203e dd91 4c3e
00000360: ed44 013e 83f1 d0bc 4218 87be a294 e53c
00000370: 1f4f 1fbc ccb5 e6bc d294 d53c db7a e3bc
00000380: 606c 78bc c801 1ebc 96f5 933e 3a7b 393e
00000390: 7975 9cbc 5cee 993e a750 913d 8942 acbc
000003a0: 0c40 b83c 20f1 1c3c 4515 2fbe a8d2 16bc
000003b0: 7fb4 0a3e bc6f 90bd bfff 9abe 448f 433e
000003c0: 1539 0dbf 090f bcbc c4ee e5bb 38a6 113d
000003d0: b3cb e5bd 6e12 3e3e 0327 07be 4bfe d83b
000003e0: 52db df3e b31a 583d c021 e8bd 373b a5bd
000003f0: 0f9b 553b a9f1 c7bc 2392 0f3e ce8c 843e
0.2045444 -0.44283172 0.13645083 -0.0321407 -0.34228808 -0.11288685 -0.05878977 -0.08181835
0.051562563 -0.056248713 0.21130915 0.009543853 -0.044753026 0.10338214 0.13725348 0.006138704
-0.35898116 -0.41509497 0.03425642 0.15410924 0.071595654 0.09300643 0.39482498 0.05027339
-0.40949884 0.082358226 -0.13335936 0.011702684 0.24328141 -0.044308808 -0.19137464 -0.32770753
-0.04418936 -0.0020643477 -0.10259708 0.037000038 -0.2931801 0.025412206 0.048437767 -0.010333321
0.012092024 -0.017862905 -0.25580072 0.12926535 -0.41692734 -0.09199347 -0.030112319 0.09565526
-0.00933971 -0.49057332 0.1573277 -0.017231517 0.046145666 0.11396827 0.19184339 0.028687375
0.15303658 -0.4684822 0.050183687 -0.09038137 0.10215789 -0.3081861 -0.08539844 -0.12320698
-0.054918963 -0.07136926 -0.09431357 0.45046777 -0.029999755 0.046026014 -0.049486518 0.018370062
0.1412946 0.16599582 -0.2724154 -0.5417956 -0.040482823 -0.39316678 0.11134874 -0.05627806
-0.3905914 0.18638197 -0.071397066 -0.31344384 -0.062121835 0.2370586 -0.32143012 0.28116384
0.20831619 0.30197036 -0.51589656 -0.27589047 0.27032492 0.3076016 0.084245905 0.08478651
0.06418967 -0.40578714 -0.19547367 0.024944428 -0.2730624 -0.25818026 -0.03443684 -0.11105542
-0.060889427 0.22538795 -0.040323164 -0.36445066 -0.069303825 -0.11736129 0.27717417 -0.16586006
0.1699418 0.26849228 -0.29554275 -0.073451 -0.14332612 0.1088756 -0.04800099 0.04591569
-0.0035891777 0.047635294 0.45927975 0.15918373 -0.026525827 -0.027701382 0.462966 0.018453963
0.011665188 0.11902748 -0.17085421 -0.35958862 0.050875273 0.013824842 0.12549482 -0.13206938
0.40033713 -0.18943772 -0.0039514136 -0.12636091 0.11317234 0.028826624 -0.1004118 0.05838083
0.01909947 -0.06541442 0.27149922 0.08581679 -0.05685426 -0.31223843 -0.52850527 0.17146198
0.026726963 0.10434427 0.057258174 0.10600623 0.22288498 -0.18096602 -0.060461186 0.012574466
0.029663313 -0.2847892 -0.32271588 -0.16406673 0.08309158 0.399523 0.04206581 -0.6769955
0.045043383 -0.27027506 -0.2176134 -0.09717688 -0.03741097 0.18959662 0.1846626 -0.42222312
-0.24537234 -0.06238805 -0.056888007 -0.007826562 -0.47859612 -0.0534653 0.14752392 -0.28033814
0.056166224 0.23195815 -0.029756522 -0.17168318 -0.1634949 -0.5631426 0.07572062 -0.3236893
0.0014871857 0.0613992 -0.35343868 -0.34704718 -0.015473642 0.24299164 -0.20731336 0.23696814
-0.4737386 -0.033913214 -0.40402412 0.1001125 -0.04120391 0.04729913 -0.20325114 -0.043903023
-0.09113386 -0.39673364 -0.5635047 -0.0843494 -0.021956155 0.29872328 0.15638557 0.19977517
0.1262395 -0.025505787 -0.26385695 0.028024975 -0.009723454 -0.02816286 0.02607194 -0.027768543
-0.015162557 -0.009643979 0.28898305 0.18113413 -0.019098984 0.30064666 0.07095461 -0.02102782
0.022491477 0.009578973 -0.17097957 -0.009205498 0.13545416 -0.07052562 -0.30273244 0.1909762
-0.55165225 -0.022956388 -0.0070169885 0.03555891 -0.11220493 0.18561718 -0.13198476 0.006622111
0.43722016 0.052759837 -0.11334562 -0.08067935 0.0032593643 -0.024407225 0.1402059 0.25888675

fc2.bias f4 [128]
00000000: 1bf8 1b3d 2d1b 0ebf 9de9 213e b446 04bd
00000010: b65a fdbe edf4 013d 31f4 bebc 52da c0bd
00000020: 840a 70be df63 1ebe f5b2 a0be 8f65 b13b
00000030: aa57 90be 6442 1bbe f745 44be f27b 52be
00000040: d1f9 dbbd cd27 923d 42a3 30bf 9ccf 0dbe
00000050: e0c2 0dbe 6e43 8abe f8af f0be 5f0a 60be
00000060: 5afc 983e 339f 083f 8e1c dcbd 23e7 7a3e
00000070: db08 e43c 7032 ffbc a2d5 24bd ef25 47bf
00000080: 8b76 8ebe cc8a 0abf 0cb2 7fbe fe5c 9dbe
00000090: 9470 abbe deba c13e d8ea 343d 6c86 22bc
000000a0: ae47 11bf a6b8 453c b876 a23d d15b f33e
000000b0: e01c 9ebd ffed 4a3d 89cd 60be c53f 18be
000000c0: 2480 d9ba b411 283e 60b4 cfbe ec0f 0e3d
000000d0: 26c6 eebd 28d1 d0be 964c e93e 0121 70bd
000000e0: 0030 9ebe 6ff8 1a3e f5b9 9f3e 3bff 5f3e
000000f0: c43a 0ebe 1a8a 44bc 0793 66be e5b8 15be
00000100: d3b9 eebd 4ad8 b5be b103 8f3c 342d a5be
00000110: 437d 69bd b64c ac3e 945e 2bbf b150 46be
00000120: 7da2 02bf 2bb0 a43e 60db 01be 05e6 9fbe
00000130: ffa9 99bd 7f3d 073e fe52 bb3d 6d95 25bf
00000140: 1156 30be 2777 0e3d 2cfb 1f3f 020e de3e
00000150: 7e0b 9ebe 45c5 903d 8616 b73e bd7e a03e
00000160: 70d4 3ebe 1fe3 a5bc ecda e9be 8d03 1abe
00000170: e4df aa3d ae0e c3bd 2b36 123e 7298 96be
00000180: 7938 71bd 62eb a5be 3b74 1c3c 2874 b1be
00000190: 248a c3be 4515 603c 1ef9 a4be 5c9e 78be
000001a0: c4ca c13e 0c7b 123f 93c2 08be 4906 bbbd
000001b0: 42df 72be 2d9c 0ebd 6ecf d2bd 16d1 62be
000001c0: ae94 463c c823 373f 7752 a0be d97e 88bc
000001d0: bfa9 aabe 3d1c 6abe 95f9 8cbe 46e8 1fbf
000001e0: 97a6 19be 4b49 64be 6106 85be fffe 143e
000001f0: c774 8e3c 7c83 543e 3abb 2dbe bfd1 84be
0.03807841 -0.55510217 0.15811773 -0.03229399 -0.4948327 0.03172772 -0.023309799 -0.09416641
-0.23441511 -0.15467785 -0.31386533 0.005413718 -0.28191882 -0.15162045 -0.19167314 -0.20555094
-0.10741008 0.07136498 -0.6899911 -0.13848728 -0.1384387 -0.2700457 -0.47009254 -0.21878956
0.2988003 0.5336792 -0.10747634 0.24502234 0.027836254 -0.03115198 -0.0402428 -0.7779226
-0.27824816 -0.5411804 -0.24970263 -0.3073501 -0.33484328 0.3783788 0.044169277 -0.009919744
-0.5675 0.012067949 0.079328 0.47530988 -0.07720351 0.049543377 -0.21953405 -0.14868076
-0.0016593975 0.16413003 -0.40567303 0.034683153 -0.116588876 -0.40784574 0.45566243 -0.058625225
-0.30895996 0.15133832 0.3119656 0.21874706 -0.13889605 -0.011995817 -0.22517024 -0.14621313
-0.11656537 -0.35516578 0.017457815 -0.3226105 -0.057004225 0.33652276 -0.6694119 -0.19366719
-0.5102919 0.32165655 -0.12681341 -0.31230178 -0.07503127 0.13207053 0.09146689 -0.6468113
-0.17220332 0.0347816 0.6249263 0.43370062 -0.30868143 0.07068876 0.35759372 0.31346694
-0.18635726 -0.020249901 -0.45674837 -0.15040417 0.08343485 -0.09524284 0.14278476 -0.29413182
-0.058891747 -0.32406145 0.009549196 -0.34658933 -0.3819133 0.013676946 -0.3222131 -0.2427916
0.3785001 0.57219005 -0.13355474 -0.09132058 -0.23717979 -0.03481691 -0.1029347 -0.22150072
0.012120409 0.7153897 -0.31312916 -0.016662048 -0.3333263 -0.22862335 -0.27534166 -0.62463796
-0.15004955 -0.22293584 -0.2598143 0.14550398 0.017389668 0.20753282 -0.16965953 -0.25941274

fc3.weight f4 [64, 128]
00000000: 38d6 c93b 5ec9 b63d 3f15 333e a699 4abe
00000010: 6b7d 673d a14c 913e 62d3 cbbd 25a4 913e
00000020: 1104 20bd 48bd 96bd d63c 9dbd 29bb ddbe
00000030: 7b1f 71bd 4fae 88be 14bd aabe 6861 e73d
00000040: 7929 c1bd d469 a33c e9be 87bd e93b ad3b
00000050: 5f56 093d c871 abbe 7284 f73c 03d9 e5be
00000060: 941d 033e 499f 293e b9c7 30be c7ac 143e
00000070: af02 27be 4e5d 4fbe 61f9 2f3e a04e f6bb
00000080: 6684 673e ef4b 19bc 7547 773e 8a27 edbd
00000090: b4eb 563e 2f51 4f3e 8fe6 86bd 9706 823e
000000a0: 9143 a53d 204c aabe d277 f1bd b7db 14bb
000000b0: 0d9e 973d 1227 68be 11c3 9ebe 6b4b a8bd
000000c0: 4d80 693e b002 69be fc3b f93d 9d47 fbbe
000000d0: c4c6 093e 6c9e 9b3d 93c9 d3bd b998 aebd
000000e0: bbf4 78bd f3c7 98bc 0fa9 5cbc 4bd4 bdbd
000000f0: f3ec ab3d a240 a33e d7fe b7bd 0dc8 603e
00000100: 2c65 233e 82e7 67be 979b 063e 737f 4a3e
00000110: 5916 b33d 5635 e53d 1e6c ecbd 3076 113e
00000120: 12ff 263e 50c3 3abd 8ca8 ccbb a4e6 e5bd
00000130: f0b9 44bd 1fe2 433e 88f5 a5be b440 ae3c
00000140: 8a1d 02bd ccaf 6c3d bf6d 113e ac52 933e
00000150: dea6 8d3e 3ee3 3ebe 1781 413e 9c33 c7bd
00000160: 053c d6bd 7783 f6be 207b a8be d901 463d
00000170: 60f6 bebe e5bf 79be 56fe 013e ca5b 4e3e
00000180: 1dd9 ccbd c04c adbd ff13 80bd be23 2b3d
00000190: 3577 a13d 820f 7b3c 5406 85bc 9bfb 6abc
000001a0: a87f b63d 852c 6b3e 210a 4bbe 620c 01be
000001b0: 18d1 f4bd 75bd 01be 89ee 78bd a09b 34be
000001c0: bb32 7d3d 2946 b8bc 0060 dcbd c494 e4bd
000001d0: 4e02 f73d c71c 15bc 8976 383e 9618 db3d
000001e0: 302e 383e 69e8 b2bd 1fad 87be 27bc d4bd
000001f0: 3304 31bd bdd7 6bbe 79ed aabc 5831 2e3e
00000200: c0af 3cbd 57a6 223e 9838 a23e 17f8 57bc
00000210: 862f cf3d e969 fabe f8fd 2bbe e6f5 babb
00000220: b775 c3be feea 2bbc d790 95be 102d 8fbe
00000230: dbd2 503c be94 d4be 0d44 0ebe 35cb 8ebc
00000240: dcd1 403c ae14 adbe da95 40bc 707f 9ebe
00000250: 56a1 aabd e8b5 6ebe 0ad2 fcbc b446 ce3b
00000260: 6a81 183d 5286 6cbe c485 8dbc 12d5 30bd
00000270: 54d4 27be fe34 abbc c3c2 82bd e4b3 093e
00000280: 2190 0ebe 7314 443d d566 a5bd 2783 763c
00000290: c0e1 a2bd 00bd 82bd c18d dc3d b668 933d
000002a0: a267 43bd bc78 36bd 8fe5 b1be 829e 413e
000002b0: 5834 053e 00e7 3bbe 95cb 98be b528 593d
000002c0: 4f5a 393e 3b12 bfbd 89b8 72bb aa36 2dbe
000002d0: 85cd ee3d 88e6 703d abb3 90be 2cca bcbe
000002e0: 8db6 d33d 5f50 b3bd 2257 d0be c4bf d73b
000002f0: 2a4e b93b 3e84 a1bd b84b eebd c39d 44be
00000300: fd20 6fbe 5529 c03d bc80 8a3d cab9 a9bd
00000310: 0a00 29be 2dc5 933e 42c1 a03e 3b97 053e
00000320: 9d8b 543d 7b26 3b3e 0613 d43d 0899 cfbd
00000330: 45fb 9e3d 0206 643e 87e0 e3be 365c 7d3e
00000340: 4f39 5e3d cc6e 95bd c250 873e 3eb3 983e
00000350: f8de 243d 33ee 13be 56e8 783e d6ee adbe
00000360: 38ed 1ebd 25b0 63be a8b8 8ebd 8a0e 92bd
00000370: 3a76 dabe 0ea1 833c c550 543d e2d5 84be
00000380: eabf 7fbd cd6c 42be e4b4 9dbe 3bc5 293e
00000390: f90b 02be fac5 31be e4d1 9abd 6bad 97be
000003a0: cd66 8abc 63ff 43bc 1030 8b3e f4f3 03be
000003b0: acc7 c5be 77e3 c5bc b27c febd 2bab 2d3e
000003c0: 6f83 263d 9883 6abe ba28 ebbc f55a 8abd
000003d0: e7b5 833e fb78 723e ea05 213e 9864 c43d
000003e0: 26e1 843d d04e 62bd 53cd f6be bd85 a8be
000003f0: 07f2 b93b f5ff 8abe 495b f4bc 900e 423d
0.00615957 0.089251265 0.17488573 -0.19785175 0.056516092 0.28378776 -0.099524274 0.28445545
-0.039066378 -0.07360321 -0.07677619 -0.43306854 -0.058867913 -0.26695487 -0.3334738 0.11297876
-0.094317384 0.019947924 -0.0662821 0.005286683 0.033529636 -0.33485246 0.030214522 -0.4489213
0.12804252 0.16564669 -0.17263688 0.14519034 -0.16309617 -0.20250437 0.17184974 -0.007516697
0.226091 -0.009356483 0.24148352 -0.11579807 0.20988351 0.20245813 -0.06586944 0.25395653
0.08069528 -0.33261204 -0.11790432 -0.0022713968 0.07403193 -0.22671154 -0.310082 -0.0821751
0.22802849 -0.22754931 0.12169644 -0.49078074 0.1345473 0.07598576 -0.103411816 -0.08525223
-0.06078027 -0.01865003 -0.013468041 -0.09269007 0.08394804 0.31885248 -0.08984154 0.21951313
0.15956563 -0.22646907 0.1314529 0.1977518 0.08744497 0.11191814 -0.11544059 0.14205241
0.16308239 -0.04559642 -0.0062456783 -0.11225632 -0.048028886 0.19129227 -0.32413888 0.021271087
-0.031766452 0.05778484 0.14202021 0.2877401 0.27666372 -0.18641374 0.188969 -0.097266406
-0.104606666 -0.48147175 -0.32906437 0.048341606 -0.37297344 -0.24389608 0.12694678 0.20152202
-0.100023486 -0.084619045 -0.06253814 0.041782133 0.07884065 0.015323522 -0.016238369 -0.014342214
0.08911067 0.22966202 -0.19828083 -0.1260238 -0.11953944 -0.12669928 -0.06077436 -0.17637491
0.06181596 -0.022494392 -0.10760498 -0.11161187 0.120609865 -0.009101099 0.18013968 0.10698049
0.17986369 -0.08735735 -0.26499268 -0.1038745 -0.043216895 -0.23031516 -0.020865189 0.1701101
-0.046066046 0.15883766 0.31683803 -0.013181708 0.10116486 -0.48908928 -0.167961 -0.005705583
-0.38175747 -0.010493038 -0.29212067 -0.27964067 0.012745584 -0.4151973 -0.13893147 -0.017430881
0.011768784 -0.3380484 -0.011754477 -0.30956602 -0.08331554 -0.23311579 -0.030861873 0.0062950496
0.037232794 -0.23098114 -0.017275698 -0.04317195 -0.1638959 -0.020899292 -0.06384804 0.13447529
-0.13922168 0.047871064 -0.08076254 0.015045918 -0.07953215 -0.06383705 0.10769225 0.071977064
-0.047706254 -0.044548735 -0.34745452 0.18908122 0.13008249 -0.18349838 -0.2984282 0.053017337
0.18100856 -0.09329649 -0.003703626 -0.16915384 0.116602935 0.0588136 -0.28262076 -0.36872995
0.10337553 -0.08755564 -0.40691477 0.0065841395 0.00565507 -0.07886551 -0.11635536 -0.19200806
-0.23352428 0.093828835 0.067628354 -0.082873896 -0.16503921 0.2886137 0.31397444 0.13045971
0.051890958 0.18276398 0.10355191 -0.1013661 0.077627696 0.22267917 -0.44507238 0.24742207
0.054253872 -0.072965235 0.264288 0.2982425 0.040251702 -0.14446335 0.24307379 -0.3397128
-0.03880045 -0.22235163 -0.06968814 -0.07131679 -0.42668325 0.016068008 0.05183484 -0.2594443
-0.062438883 -0.18986817 -0.3080207 0.16579144 -0.1269988 -0.17360678 -0.07559565 -0.29624495
-0.016894722 -0.011962744 0.27185106 -0.1288603 -0.386289 -0.024156315 -0.124261275 0.16959827
0.04065269 -0.22901762 -0.028705943 -0.0675563 0.25724718 0.23678963 0.15724912 0.09589499
0.06488256 -0.055250943 -0.48203525 -0.32914534 0.005674604 -0.27148405 -0.029828684 0.04737717

fc3.bias f4 [64]
00000000: 5150 8e3e ef2d ee3d 7818 4b3d 4489 e7bc
00000010: 7ca7 8bbe be7f 63bd 711d 18be fa8c 0dbe
00000020: e73d 983d 4e3b c03e d88b 213e 7d29 0abd
00000030: 5dc6 cc3e 7855 653e 0cb6 02bd 6051 bd3e
00000040: cfac a6bd 0746 5dbe 691c 9bbd 6673 2dbd
00000050: 0b41 63be 655f a13e b271 af3e 12d3 e0bd
00000060: 509b 7bbd 6925 013f 1673 383e b2c0 a2bd
00000070: 6c92 e4bc 2973 1d3f 617a 5f3e 003b 1cbd
00000080: 6cce c53e 2505 20be 92eb e7bd f1db 84be
00000090: 2533 7b3e 456e f73e b056 c0bb a247 9cbe
000000a0: 84ef 80be e991 09be 070a 683d 581d d73e
000000b0: 2e8a 0dbd 40ea ca3e bb98 903e 8f4d 1dbe
000000c0: a377 5dbe 674c 3f3e 286c 233e dbc3 78be
000000d0: d7ce e63e 8326 c3be fde3 df3e 9253 46bc
000000e0: a1cc 313e 4d93 de3e c515 43be dd46 343e
000000f0: 2053 b33d 8549 f4bc 1b3b 9e3e ccab 9bbd
0.27795652 0.11629855 0.049583882 -0.028263696 -0.27276218 -0.055541746 -0.14854981 -0.1382331
0.07433682 0.37545246 0.15776002 -0.033730973 0.3999509 0.22395885 -0.031911895 0.36976147
-0.081384294 -0.21608745 -0.07573778 -0.04234638 -0.2219278 0.31518093 0.3426643 -0.109777585
-0.061427414 0.5044771 0.18012652 -0.0794691 -0.02790185 0.61503845 0.21824028 -0.038142204
0.3863405 -0.15626962 -0.11324228 -0.25949052 0.24531229 0.48326316 -0.005869709 -0.30523401
-0.25182736 -0.13434567 0.056650188 0.42014575 -0.034555607 0.39631844 0.28241524 -0.15361618
-0.21627669 0.18681489 0.15959227 -0.24293463 0.4507968 -0.3811532 0.4372863 -0.012104886
0.17363216 0.43471757 -0.19051273 0.17605157 0.08756089 -0.029820213 0.3090447 -0.07601127

fc4.weight f4 [10, 64]
00000000: 278c a6bc a8b8 35bf e27c d73d c191 19be
00000010: 6430 a63d d4f6 8dbe bf16 d9be 191b 3ebe
00000020: dc00 1ebe 94a6 f0bd aeb6 0ebe fa53 0bbf
00000030: 1f46 42bf b190 2bbf fab4 89be 27ce d33d
00000040: bb40 243d d8cc cabe d06e 28be 5d23 4fbf
00000050: f884 93be 69fb 03be 502e f5be 617f 98bc
00000060: e9f8 873d 1ed5 05be 7480 2dbe 80f3 09bf
00000070: 085f 243e e859 4bbd 9d80 93bf 6ac4 7fbc
00000080: 2657 24be aac8 9ebe a8ae d63d 9d1b 25bf
00000090: fa84 c33d 66ba 043e e5b7 12be f906 97bc
000000a0: 15e9 593d 9ed9 59bd 7088 4fbe b786 e23d
000000b0: 9eb6 4b3d 810e 3dbe 74cd 0b3b b29c 75bb
000000c0: bd2b 93be 94ba fdbe be07 96be df3d d6be
000000d0: 3456 16bf 8bc5 4bbf 270e f13d 9169 0b3e
000000e0: b2fd ec3d 10c2 c13c 9c94 6dbe bcef e33d
000000f0: e758 013e 5ec6 0bbe f460 02be 120e 613b
00000100: 6b63 ae3b 5561 a03d 4861 8dbe 060b d9be
00000110: ee45 243d a26d d4be f646 623d e515 c8be
00000120: 4d7f 453d 9a6e 7bbe b8c1 1c3e d630 353e
00000130: 2e5c ef3d 1908 fc3c 024a 7a3d 5e03 ecbe
00000140: 6397 07bf 2247 63be a941 c4be 01d9 703d
00000150: f388 703d 6b93 c93d d1c3 83be e9ed 2bbf
00000160: de22 cabe 652a f33d c61c b3be cb76 803d
00000170: 634f 14bf 8984 9cbe 2048 2cbe 3bef 2abf
00000180: dd8e 23bf cca3 4a3b 7c80 cc3d 914f 143e
00000190: da32 dabd d1e7 d5be 1982 8d3d 9211 f8bd
000001a0: a5c4 c9be ce03 3c3d 10b0 fd3c 6c3c d6bc
000001b0: b64d b8be febd 5ebe 409a 4b3e 6233 3dbe
000001c0: 37cc dabd 4ea0 863d df75 133e fa41 be3d
000001d0: 1b69 cb3d 56fd 1c3e a077 1abf b479 89be
000001e0: 447f e2be b70f e4bc 7f75 4f3c d197 88bd
000001f0: 91d9 91be 04df 53be 4d45 83be 5068 88bd
00000200: ea91 4a3d d97f 133e 5040 d63d f3af 7e3c
00000210: 9831 ebbb 4acf 90be 9099 84be 98c3 13be
00000220: df60 4ebc 2c0f 87bd 7ece ccbd df3d d4be
00000230: 6c5a e9be 7576 98be 5326 15be 57a2 ab3c
00000240: 6f7f 59be cc25 ccbe d1c4 da3d 8811 8ebe
00000250: 6344 6abd e3f4 9cbe 8416 bbbd f95b 28bf
00000260: 81ba eebd 4792 4abe ff0d 543d 9643 3abe
00000270: ac41 a3be 44fd 82bd b6c4 67be 2748 b63d
00000280: 0ab4 1f3d c303 11be 35c2 c6be e3f1 31be
00000290: 7154 c83b 9ffd 0abd e57f ce3d 000a fbb8
000002a0: aba3 23be c1da 0b3e 55bb cf3d 9b97 4d3d
000002b0: 4126 c5be bd8c 4ebe 98ae 0fbe c88c e43d
000002c0: 072f 44be 2402 023e 8378 2c3e da1e 163e
000002d0: 659d f8bd 4d42 cf3d a15a b9be fdf0 1e3d
000002e0: feab c8bb c2a2 9cbe 670e 7dbe 9b21 acbb
000002f0: 46ca 2b3d 6b43 5cbf 9511 cebe cded 7a3d
00000300: 479a 153c 3532 123b d15d 9cbe 5281 94be
00000310: 6030 643d db49 22be 3c37 dfbd 3527 00bf
00000320: 695d 62be 12e7 813d d621 8b3d 301a 0cbe
00000330: c011 153e 7918 033e 6272 2cbe eace a5be
00000340: 70b8 42be 09fd 82be 3212 fc3d 24cc ca3c
00000350: e5a0 eabd 3017 49be 17e4 4c3d d59f 4bbe
00000360: 7785 263c 95fa 533d 9147 35be a41a c83d
00000370: 67a8 cf3d 0cbc f73d fa4c a63d 3f49 163e
00000380: f3d8 0c3c 01b8 923d 67e1 71bd 79db 7ebe
00000390: b810 9ebe e7c3 b8be 2c6c 94be e5fc fd3c
000003a0: e15b be3d fe21 073d 2a42 89be 9072 a53d
000003b0: 42d8 1fbf c8e1 7a3d 5312 55be 9fc1 923d
000003c0: e16c 21be 08d9 a6be f512 643d cd38 2f3b
000003d0: 7d1a 84be 2cb6 033e 8b8e 89be 17b8 07be
000003e0: 46fe 013d 5774 a6be 5a4a 83be e296 50bb
000003f0: 74ea 2bbd e2ee 08be 0ea0 abbe 44f7 c63d
-0.020330502 -0.7098489 0.105218664 -0.14997007 0.081146985 -0.27727377 -0.42400166 -0.18565024
-0.15430015 -0.11750522 -0.13936874 -0.54425013 -0.75888246 -0.67017657 -0.26895887 0.10342055
0.040100794 -0.39609408 -0.16448522 -0.80913335 -0.28812385 -0.12888874 -0.47886896 -0.018615426
0.06639273 -0.13069579 -0.16943532 -0.53887177 0.16051877 -0.04964629 -1.1523625 -0.015610794
-0.1604887 -0.3101247 0.10482532 -0.6449526 0.09546848 0.1296173 -0.14327963 -0.018435942
0.0532008 -0.05318605 -0.2026689 0.11060851 0.049734704 -0.18462564 0.0021332176 -0.003747743
-0.28744307 -0.4955641 -0.29302782 -0.4184408 -0.58725286 -0.795983 0.117702775 0.13614489
0.11571826 0.023652107 -0.23201221 0.1112971 0.1263157 -0.1364989 -0.12732297 0.0034340662
0.00532191 0.078310646 -0.27613282 -0.42391223 0.040105753 -0.41489893 0.055243455 -0.39079204
0.048217107 -0.2455391 0.15308273 0.1769441 0.11687504 0.03076558 0.061105736 -0.4609632
-0.5296537 -0.22195104 -0.38331345 0.0588007 0.058724355 0.09842571 -0.25735334 -0.671599
-0.39479727 0.118733205 -0.3498289 0.06272658 -0.57933635 -0.30569866 -0.16824389 -0.66771287
-0.6388987 0.0030920384 0.09985444 0.14483477 -0.106542304 -0.41778424 0.0690958 -0.12112726
-0.3940784 0.045902066 0.030967742 -0.026151858 -0.3599679 -0.21752164 0.1988306 -0.18476632
-0.10683482 0.065735444 0.14400433 0.09289928 0.09932157 0.15331015 -0.60338783 -0.26850665
-0.4423772 -0.027839525 0.012662291 -0.06669582 -0.28486302 -0.20690542 -0.2563881 -0.06660521
0.04945556 0.14404239 0.104614854 0.015544879 -0.007177543 -0.2828315 -0.2589841 -0.14430082
-0.012596338 -0.06594691 -0.10000323 -0.41453454 -0.455768 -0.29777876 -0.14565401 0.020951433
-0.21240018 -0.39872587 0.10682071 -0.2774775 -0.057194125 -0.30655584 -0.09135154 -0.6576534
-0.116566665 -0.19782363 0.05177116 -0.18189844 -0.3188604 -0.06395963 -0.22633633 0.08900481
0.038990058 -0.14161591 -0.38820043 -0.17377429 0.006113582 -0.03393328 0.10082988 -0.00011970475
-0.15980403 0.13657667 0.101431526 0.05019341 -0.38505748 -0.20170875 -0.14031446 0.111596644
-0.19158565 0.12696129 0.16842847 0.14660206 -0.121393956 0.10120068 -0.36201957 0.038804043
-0.0061240187 -0.30592924 -0.24712525 -0.0052530295 0.04194095 -0.8604037 -0.4024779 0.06126194
0.009131021 0.0022307758 -0.30540326 -0.29004914 0.055710196 -0.15848486 -0.10899207 -0.50059825
-0.22105946 0.06342901 0.06793563 -0.13681865 0.14557552 0.12802304 -0.16840509 -0.32384425
-0.1901567 -0.25583676 0.12308158 0.024755545 -0.114564694 -0.19637752 0.05002221 -0.1988519
0.010163656 0.051752646 -0.17703082 0.09770706 0.10139542 0.12096414 0.08120151 0.14676379
0.008596647 0.07164002 -0.05905285 -0.2488841 -0.3087213 -0.36086962 -0.2898878 0.031004379
0.09294868 0.0329914 -0.26808292 0.08078492 -0.6243936 0.061250478 -0.20807771 0.071658365
-0.1576419 -0.32587457 0.05568214 0.0026736737 -0.2580146 0.12862462 -0.26866564 -0.13253818
0.031736635 -0.32510635 -0.25642663 -0.0031828214 -0.04197164 -0.13372377 -0.3352055 0.09715131

fc4.bias f4 [10]
00000000: df83 f5bc 219d 4dbe 7367 99be 213d e8bd
00000010: 883b b0bd 396a 8fbe 4550 15be d42f 67bd
00000020: 8029 273f a968 483e
-0.029970108 -0.20079471 -0.29961738 -0.113397844 -0.08605105 -0.2801073 -0.14581402 -0.056442097
0.652977 0.19571175
